multi_gpu_torch_examples/ddp-tutorial-series/py_scripts_ex/snapshot.pt (torch, 2029 bytes, 1 tensors)

weight f4 [1, 20]
00000000: 0fb5 143c 51d5 40be 9a46 39be 58ae 2d3e
00000010: 5b0c 473e a353 3bbe e066 4fbd 9c7b 6abd
00000020: c257 0cbe 7e85 65bc e60a 97bd 75c4 513e
00000030: e9d7 b9bd bae4 55be ef30 18be 52cf 06be
00000040: 4e35 b83d 8eeb 88bd e15f f8bc b5f8 d7bd
0.009076371 -0.18831374 -0.18093339 0.16961038 0.19438307 -0.18293624 -0.05063522 -0.05724679
-0.13705352 -0.014008878 -0.073751256 0.20485099 -0.09074385 -0.20888034 -0.14862417 -0.13165024
0.08994542 -0.066855535 -0.030319156 -0.10545484
